fairdiverse/recommendation/log/steam-base-mf/best_model.pth (torch, 729194 bytes, 2 tensors)

user_embedding.weight f4 [4446, 32]
00000000: 4656 b5be d67b b8be 4b5b b7be d9dd adbe
00000010: e549 c0be 5b11 c3be 485c ce3e a8b1 d2be
00000020: c19f 873e 6a36 8c3e 65ff bebe 938c cf3e
00000030: 3b04 98be 8fad 96be b58d 6e3e c024 babe
00000040: fa44 b4be feb6 b1be f93e c0be fdd4 a93e
00000050: 9d49 a33e 85ee 943e c1f1 b53e 5db5 d2be
00000060: 7bea b73e 23a5 a4be d0b0 cbbe 59d2 b13e
00000070: 87b0 acbe a4d5 adbe fe60 d53e 1a8a b4be
00000080: 95be 85be 4a2e 80be 8463 70be cc58 7abe
00000090: c987 88be 68a5 7bbe 79a5 793e 32ca 67be
000000a0: fccc 743e cc42 6c3e 28a0 84be 15c3 8e3e
000000b0: 4155 87be f356 7fbe 429c 843e 953a 7fbe
000000c0: 6526 87be 7bf6 6fbe 7fd4 61be f63a e23d
000000d0: bf01 773e f757 843e 6cc3 7e3e 8bc2 8abe
000000e0: d5a1 6b3e 34a9 84be 027f 81be bf1e 7b3e
000000f0: ec24 76be 8e3b 79be c50c 233e 48e0 88be
00000100: 0d2c babd 315f b2bc 8800 68bd 703a 743c
00000110: 55e1 08be 3471 7139 fa15 a9bb 26cf 4a3b
00000120: be98 ffbd b070 9abc 6f55 49be d39b 65be
00000130: 3c2e 063e b602 3ebd c1f7 febd 8666 a2bd
00000140: 437a 98bd 0b66 2a3c 86d5 b23d 4b45 c8be
00000150: fcee 9cbc 529f 483e e966 283e 39f2 eabe
00000160: ff6b 243e 664a a4be 4e27 89be 5504 0f3d
00000170: 822c 3ebf cc67 253e 456b 2f3e 83f4 7c3d
00000180: 8468 d0be a4f9 92be 0639 12be 0032 5fbe
00000190: 3305 20be ec58 b5bd 0645 473e e33c 1fbe
000001a0: f2c8 223e de43 783e 06c7 62be b396 de3d
000001b0: 790b cb3d a075 7ebe 0b29 c03e a40a 3cbd
000001c0: 6a1e 513d 047d b8bd 0dd2 b1be 177c d13d
000001d0: 4ed1 a7bc 39f1 6f3e c3a4 a33e f6a4 1a3f
000001e0: e07e 0a3f dc0b 39be e033 aebe e936 eabd
000001f0: e38b 833d 96de 623d f0fb 89be 6263 11bd
00000200: 8529 70bc a42a 4fbd 7df8 ae3d d486 51bc
00000210: aa5c 6ebe 07cf 4b3d bcb3 05be eb52 133e
00000220: 2f83 7cbe 9adf 683d b25f 3dbd 37d6 c83e
00000230: 510f 07be a64d 1f3e 56b5 283e 0d54 d8bd
00000240: 1b80 d93e 12a9 1ebd bca3 2e3c b2cc 1cbe
00000250: b9d1 6fbd c162 54be 9821 823d a8e3 e43e
00000260: 5a71 ffbd 1aa8 d83c 3cbc 813e b4f4 eebc
00000270: 0c6d a2be a0fd acbd 148a ed3e 216a adbe
00000280: 1f6c 683e de64 813e b37e 753e a91f 453e
00000290: 2d4f 7e3e 7f9c b8ba 56b7 34be 0704 783e
000002a0: f831 7e3d 78c5 75be 57c4 803e 870f 4cbe
000002b0: 3939 6a3e 9a38 3e3e b21b 62be 273e 603e
000002c0: 4dc6 b5bc 5941 563c 7879 5f3e e8a3 5fbe
000002d0: df12 70be 8cc2 44be 88f5 7cbe 8d10 40be
000002e0: aed9 79be e63a 7b3e e432 803e be07 f63d
000002f0: 785a 5abe 6903 6c3e cdea 7abe 7b62 ccbd
00000300: 1287 6bbd f450 82be f5d0 523c 49cc bfbe
00000310: 9a30 a4be b0cf b73b 4069 ad3d 984b 28bf
00000320: 2f51 083e b7d8 673e 8168 0bbf d024 2a3f
00000330: 1353 91bc b020 c9bd ed44 103e 9e76 49be
00000340: 824e bdbe c266 49be a8d9 2dbe e6a4 003e
00000350: d7bf 093f f315 933d 87ec 9a3e 4ff9 a83d
00000360: 0674 363c f7bd e2be 329c 293e aede 70be
00000370: 14a3 d7bd 6c05 2fbe 3e83 2d3e 69d7 f1be
00000380: 3547 20be 54a0 07bd 693c 9abc 4775 0fba
00000390: ad2c 5ebd d5ba 3abe 36b8 9abc 9dbe e3be
000003a0: eab5 213e 506e 0e3d a2be 93bd 3e04 41bd
000003b0: 921d c1bd 4f28 97be 297c c23d 3cd2 17be
000003c0: ac79 9abe 592c 3d3b f67c cfbd 1268 c53e
000003d0: 7760 1e3e 7787 dc3d de01 b33e 41b1 91be
000003e0: 6214 173d cd52 ebbc 3fe3 183c af37 c23e
000003f0: 9ef8 b4bd 2b83 a6bb 2864 5c3c 4869 dabd
-0.35417384 -0.3603198 -0.35811839 -0.3395832 -0.37556377 -0.3809918 0.4030478 -0.41151166
0.2648907 0.27385265 -0.37304226 0.40536937 -0.29690728 -0.2942929 0.23296244 -0.36356163
-0.35208875 -0.34709924 -0.37548044 0.3317031 0.318921 0.29088226 0.35536006 -0.41153994
0.35921082 -0.3215724 -0.39783335 0.34730795 -0.3372843 -0.33952057 0.41675562 -0.35261613
-0.26121965 -0.25035316 -0.23475462 -0.24447936 -0.26666096 -0.24574816 0.24379529 -0.22635725
0.2390632 0.23072356 -0.2590344 0.2788321 -0.2643223 -0.24935512 0.25900465 -0.24924691
-0.2639648 -0.23433869 -0.22053717 0.11046402 0.2412176 0.25848362 0.24879235 -0.2710155
0.23010953 -0.25910342 -0.25292212 0.24523447 -0.24037522 -0.24339125 0.1592284 -0.26733613
-0.09090433 -0.021773906 -0.05664113 0.014906511 -0.13367207 0.00023025722 -0.0051600905 0.0030946224
-0.12480305 -0.018852562 -0.19661497 -0.22422723 0.13103575 -0.046389304 -0.12449599 -0.07929711
-0.074451946 0.0104003055 0.087321326 -0.39115366 -0.019156925 0.19592026 0.16445507 -0.45887926
0.16056822 -0.32088012 -0.267878 0.03491624 -0.74286664 0.16152877 0.17130764 0.061756622
-0.4070474 -0.28706086 -0.14279565 -0.21796417 -0.15626983 -0.08854851 0.19459924 -0.1555057
0.15896967 0.2424464 -0.22146234 0.10868587 0.099142976 -0.24849558 0.37531313 -0.045908585
0.051054396 -0.0900822 -0.3473057 0.102287464 -0.020485546 0.23431863 0.3196164 0.6040796
0.54099846 -0.1807093 -0.34023952 -0.114362545 0.06423166 0.055388056 -0.26950026 -0.03549517
-0.0146583365 -0.050577775 0.08543489 -0.012788493 -0.23277536 0.049757984 -0.13056844 0.143871
-0.24659418 0.056853868 -0.04623384 0.39225933 -0.13189436 0.15556964 0.16475424 -0.105629064
0.4248055 -0.038735457 0.0106591545 -0.1531246 -0.058549616 -0.20740797 0.06354064 0.44704938
-0.12472792 0.026447345 0.25338924 -0.029169418 -0.3172382 -0.08446813 0.46394408 -0.33870032
0.22697495 0.25272268 0.23974113 0.19250359 0.2483489 -0.0014084725 -0.17648062 0.24220286
0.062059373 -0.2400111 0.25149795 -0.19927798 0.22873391 0.1857628 -0.22080877 0.21898709
-0.022189284 0.0130771035 0.2182368 -0.21839869 -0.23444699 -0.19214839 -0.24703038 -0.18756314
-0.24399444 0.24534187 0.25038826 0.120131955 -0.21323574 0.23048176 -0.24503632 -0.09979721
-0.05750186 -0.25452387 0.012867202 -0.37460545 -0.3206833 0.005609475 0.084673405 -0.65740347
0.13312219 0.22641264 -0.54456335 0.6646242 -0.017739808 -0.09820688 0.14088793 -0.19674155
-0.3697396 -0.19668105 -0.1697756 0.12562904 0.5380835 0.07181921 0.3025858 0.08250677
0.011136061 -0.44285557 0.1656349 -0.23522446 -0.105291516 -0.17091912 0.16944596 -0.47234657
-0.15652163 -0.033111885 -0.018827634 -0.0005472493 -0.054241825 -0.18235333 -0.018886667 -0.44481364
0.15792051 0.03477317 -0.07214095 -0.047123186 -0.09429468 -0.2952294 0.09496338 -0.14826292
-0.30170953 0.0028865545 -0.10131256 0.38555962 0.15466486 0.10768025 0.34962362 -0.28455546
0.036884673 -0.028726006 0.009331523 0.37933108 -0.088364825 -0.0050815544 0.0134516135 -0.10664612

item_embedding.weight f4 [1238, 32]
00000000: 842e a9be add8 aebe eaf7 adbe 5522 adbe
00000010: d73d a9be 5f97 babe 9e6d a73e 1d06 a5be
00000020: 5937 aa3e 6d4e b53e db41 b6be f567 b23e
00000030: bea0 b8be 11db 9cbe a633 a83e c846 41be
00000040: 6335 a0be 120a b3be 09f4 abbe 9ba9 6fbd
00000050: 8376 753e f6b0 b13e bfd2 a43e adf6 1f3e
00000060: 121c b03e eaba 52be 0424 8ebe 3140 743e
00000070: 02b8 18be b532 67be f32c c63e fa44 afbe
00000080: 70b9 593e a5e8 8d3e 5a7b 7b3e a5e6 813e
00000090: 1f75 703e 9405 8b3e 1f31 80be 5d62 653e
000000a0: 66ba e2bd 2aa5 80be 3595 3a3e d94d 8fbe
000000b0: 8f1e 8a3e d813 853e 9ded 81be dcfd 7e3e
000000c0: 2b23 823e 8528 613e 5fa6 cfbd d410 8d3e
000000d0: e1b7 8abe afeb 023d 7c54 86be 7557 91be
000000e0: 20cc 82be e02d 5e3e 4f11 013d b55a f3bd
000000f0: 7131 7c3e cac6 893e 129e 90be 0050 723e
00000100: 808f 01bf a030 683d b9a4 57be 9270 c5bd
00000110: 9ff8 8bbe f900 84be 634a 613e 25af b43b
00000120: a282 cf3e 7569 e23e bc11 87bf 4ab6 2c3f
00000130: 7d72 8cbe 626b e5be 3c4f 803e df6a 193d
00000140: af14 70be 0c9b 0a3e 04cd e3bd 3ed8 c3bd
00000150: 6eca a03e bd13 5b3e 272b 943e 82f3 fd3e
00000160: e519 6b3d c758 8ebe 1872 eebe dfd7 333f
00000170: e703 fc3e 9668 dbbe 198a 543f cf4b 18be
00000180: a21b aa3e 5649 c9bd bbd1 3e3d cadb b4be
00000190: ae06 b33d 2720 cbbd 78a2 7dbe 0630 423e
000001a0: 2eb5 8e3e 2a16 d9bd 9583 a6be 3923 723e
000001b0: df70 9ebe 421a b4bd 0df0 73bd 2639 04bd
000001c0: 1dc7 d2be 8130 1abe 8da2 923e 0c79 00bf
000001d0: 2073 413e f424 433f 4880 72be de14 9f3e
000001e0: 7c65 05bf 9c5d 963e 6c33 13bf 043b 13bd
000001f0: cd0b 02bf 9a0b 0bbf b3d7 443e 60a6 8bbe
00000200: 262c 1a3c 5b42 2abe 790e cfba b89e b73d
00000210: e96e e73d 58e0 d83c 09a2 8b3d fafe f73d
00000220: 39a2 3fbe bd21 02bc ce2f 763e a338 593d
00000230: d023 ecbd 10bd f5bd beea 9fbd 4323 103e
00000240: 3799 0b3e b50b cebd 260a 463d b2a3 37be
00000250: b905 f03d 0fd9 7bbd 91c8 3fbc 3c8a 4f3e
00000260: 5062 203c fbcd a4bd 2e25 0cbe b856 3f3e
00000270: af4b 933c ca54 063d fb12 52be 9d58 83bd
00000280: d718 c53c 9b92 adbe 27c3 073e c738 1cbe
00000290: 1f19 9d3e 1546 13bf 4f20 c4be 00da d8be
000002a0: 2aec 383d 065d 7a3c 6508 cebd d86a 763e
000002b0: 3d46 383e de65 f73c 2955 773e 1829 b5be
000002c0: baf1 01bf 0f58 4e3e d98a 0e3f 76ac 973e
000002d0: 1014 393f d5f4 593f 8da8 4c3f 9cae debd
000002e0: 212c 083f c657 33be 0c14 803d b313 c4bd
000002f0: 93b6 c5be 2963 4abe bce5 083d cf08 e3be
00000300: 29ff ae3e 1ad8 773e 8b1e a53e ddca 9c3e
00000310: e110 a53e 2cc3 a73e c46a 93be c729 923e
00000320: 2e09 b1be 0bfa a0be 31c0 973e f567 6ebe
00000330: 880d ad3e c423 ae3e 17fc 9ebe e86a ab3e
00000340: 43f7 8a3e 0d83 8f3e 5412 ba3e 532a 593e
00000350: 7c3e 39be bccd 45be 3ee2 1cbe dbcf 28be
00000360: c6a0 86be f27c af3e 66ad 953e 8eb7 91be
00000370: 274c 873e a097 463e abac cdbe 136e bd3e
00000380: 4070 283e 0c39 fb3e 0739 a33e 672e 573e
00000390: 0c96 fb3e d399 a63d 7e04 cdbe 561e af3e
000003a0: 593c 65be f5e0 debe 946d d63e c803 a0be
000003b0: 715d 023f 95e7 bb3e 7056 f4be 380a 263e
000003c0: 78c7 243e 3700 023f 1eb9 843e bc8e f83c
000003d0: 7b25 99be aa69 06bf d2eb d4be bc3d c23e
000003e0: b9bd 8bbe f48c fb3e a399 c43e 39fa afbe
000003f0: 8261 33bd f6eb b63e 1a5e e0be a759 d03e
-0.330433 -0.34149686 -0.33978206 -0.33815256 -0.33054993 -0.36443612 0.3270082 -0.32231227
0.33245352 0.35411397 -0.3559712 0.34844938 -0.36060137 -0.30635884 0.32851905 -0.18874657
-0.3129073 -0.3496862 -0.33584622 -0.058511358 0.2397099 0.34705323 0.32192037 0.15621443
0.34396416 -0.20579115 -0.27761853 0.23852612 -0.14913943 -0.22577937 0.3870617 -0.34232312
0.21262145 0.27716556 0.24558774 0.2537128 0.23482178 0.27152693 -0.25037476 0.22400804
-0.11070709 -0.2512601 0.1822098 -0.2798908 0.2697644 0.25991702 -0.25376597 0.24901527
0.25417456 0.21988113 -0.10139155 0.275519 -0.27093413 0.031963047 -0.2623633 -0.28387037
-0.2554636 0.21697187 0.031510647 -0.11882535 0.24628235 0.26909477 -0.28245598 0.2366333
-0.5060959 0.056686997 -0.2105893 -0.09640612 -0.2733812 -0.25781992 0.22001033 0.005514043
0.40529352 0.44221082 -1.0552287 0.6746565 -0.27431098 -0.4480849 0.2506045 0.037455436
-0.2344539 0.13535708 -0.11123088 -0.09562729 0.31404442 0.21394248 0.28939173 0.49599844
0.05739774 -0.27802107 -0.46571422 0.7025127 0.49221727 -0.4285323 0.8302322 -0.14872669
0.33224207 -0.09828441 0.046586733 -0.35323936 0.087415084 -0.09918242 -0.24769008 0.18963632
0.27872604 -0.105999306 -0.32522264 0.23646249 -0.3094549 -0.08794071 -0.059555102 -0.032281063
-0.41167536 -0.15057565 0.2863964 -0.501847 0.18891573 0.7622826 -0.23681748 0.31070608
-0.5210798 0.29368293 -0.5750034 -0.035944954 -0.50799257 -0.5431458 0.19222908 -0.27275372
0.00940994 -0.16626875 -0.001579716 0.0896582 0.11300451 0.026474163 0.06818015 0.1210918
-0.18714227 -0.007942614 0.24041674 0.05303253 -0.11530268 -0.119989514 -0.078084454 0.14075951
0.13632666 -0.10060827 0.048349522 -0.17933539 0.117198415 -0.0614863 -0.011705534 0.20267576
0.0097890645 -0.080471 -0.13686058 0.18685424 0.017980425 0.032795705 -0.20515053 -0.06413386
0.024059696 -0.33900914 0.13258038 -0.15256034 0.30683228 -0.5752881 -0.383059 -0.4235382
0.0451471 0.015280968 -0.10060195 0.24064195 0.17995544 0.030199941 0.2415358 -0.35382915
-0.5075947 0.20150779 0.55680615 0.29623765 0.7229624 0.8513921 0.7994469 -0.10873148
0.53192335 -0.17513952 0.06253824 -0.0957407 -0.38615856 -0.19764389 0.033422217 -0.44342658
0.34179047 0.2420353 0.32249865 0.30623522 0.3223944 0.32766092 -0.28792393 0.285475
-0.34577316 -0.31440768 0.29638818 -0.23281844 0.33799386 0.34011662 -0.31051704 0.3348
0.2714177 0.2802967 0.36342108 0.21207552 -0.18090242 -0.19316763 -0.1532068 -0.1648554
-0.26294535 0.34275013 0.29233855 -0.28460354 0.26425287 0.19393778 -0.40170798 0.36998042
0.1644907 0.4906696 0.31879446 0.21013795 0.49137914 0.081348084 -0.4004249 0.34202832
-0.22386302 -0.43531004 0.41880476 -0.31252885 0.5092383 0.3670012 -0.47722197 0.16214836
0.16091716 0.5078158 0.25922483 0.030341499 -0.29911408 -0.5250498 -0.41586167 0.37937725
-0.27293184 0.49130976 0.38398466 -0.34370592 -0.043794163 0.357269 -0.43821794 0.406934
